_________________________________________________________________
Layer (type)                 Output Shape              Param #   
=================================================================
flatten (Flatten)            (None, 169)               0         
_________________________________________________________________
dense (Dense)                (None, 150)               25500     
_________________________________________________________________
dense_1 (Dense)              (None, 90)                13590     
_________________________________________________________________
dense_2 (Dense)              (None, 30)                2730      
_________________________________________________________________
dense_3 (Dense)              (None, 4)                 124       
=================================================================
Total params: 41,944
Trainable params: 41,944
Non-trainable params: 0
_________________________________________________________________
Iteration:  1
Train on 25213 samples, validate on 4000 samples
Epoch 1/150
 - 1s - loss: 1.3873 - acc: 0.2720 - val_loss: 1.3849 - val_acc: 0.2780
Epoch 2/150
 - 1s - loss: 1.3852 - acc: 0.2718 - val_loss: 1.3864 - val_acc: 0.2535
…
