_________________________________________________________________
Layer (type)                 Output Shape              Param #   
=================================================================
flatten (Flatten)            (None, 169)               0         
_________________________________________________________________
dense (Dense)                (None, 180)               30600     
_________________________________________________________________
dense_1 (Dense)              (None, 180)               32580     
_________________________________________________________________
dense_2 (Dense)              (None, 180)               32580     
_________________________________________________________________
dense_3 (Dense)              (None, 100)               18100     
_________________________________________________________________
dense_4 (Dense)              (None, 30)                3030      
_________________________________________________________________
dense_5 (Dense)              (None, 4)                 124       
=================================================================
Total params: 117,014
Trainable params: 117,014
Non-trainable params: 0
_________________________________________________________________
Iteration:  1
Train on 25213 samples, validate on 4000 samples
Epoch 1/300
 - 1s - loss: 1.3880 - acc: 0.2711 - val_loss: 1.3906 - val_acc: 0.2422
Epoch 2/300
 - 1s - loss: 1.3858 - acc: 0.2706 - val_loss: 1.3863 - val_acc: 0.2772
…
