_________________________________________________________________
Layer (type)                 Output Shape              Param #   
=================================================================
flatten (Flatten)            (None, 169)               0         
_________________________________________________________________
dense (Dense)                (None, 180)               30600     
_________________________________________________________________
dense_1 (Dense)              (None, 180)               32580     
_________________________________________________________________
dense_2 (Dense)              (None, 100)               18100     
_________________________________________________________________
dense_3 (Dense)              (None, 30)                3030      
_________________________________________________________________
dense_4 (Dense)              (None, 4)                 124       
=================================================================
Total params: 84,434
Trainable params: 84,434
Non-trainable params: 0
_________________________________________________________________
Iteration:  1
Train on 25213 samples, validate on 4000 samples
Epoch 1/300
 - 1s - loss: 1.6174 - acc: 0.2689 - val_loss: 1.5640 - val_acc: 0.2923
Epoch 2/300
 - 1s - loss: 1.5423 - acc: 0.2819 - val_loss: 1.5136 - val_acc: 0.3030
…
