_________________________________________________________________
Layer (type)                 Output Shape              Param #   
=================================================================
flatten (Flatten)            (None, 169)               0         
_________________________________________________________________
dense (Dense)                (None, 150)               25500     
_________________________________________________________________
dense_1 (Dense)              (None, 120)               18120     
_________________________________________________________________
dense_2 (Dense)              (None, 90)                10890     
_________________________________________________________________
dense_3 (Dense)              (None, 30)                2730      
_________________________________________________________________
dense_4 (Dense)              (None, 4)                 124       
=================================================================
Total params: 57,364
Trainable params: 57,364
Non-trainable params: 0
_________________________________________________________________
Iteration:  1
Train on 25213 samples, validate on 4000 samples
Epoch 1/300
 - 1s - loss: 1.5919 - acc: 0.2749 - val_loss: 1.5518 - val_acc: 0.2533
Epoch 2/300
 - 1s - loss: 1.5251 - acc: 0.2816 - val_loss: 1.4981 - val_acc: 0.3020
…
