_________________________________________________________________
Layer (type)                 Output Shape              Param #   
=================================================================
flatten (Flatten)            (None, 169)               0         
_________________________________________________________________
dense (Dense)                (None, 150)               25500     
_________________________________________________________________
dropout (Dropout)            (None, 150)               0         
_________________________________________________________________
dense_1 (Dense)              (None, 120)               18120     
_________________________________________________________________
dropout_1 (Dropout)          (None, 120)               0         
_________________________________________________________________
dense_2 (Dense)              (None, 90)                10890     
_________________________________________________________________
dropout_2 (Dropout)          (None, 90)                0         
_________________________________________________________________
dense_3 (Dense)              (None, 30)                2730      
_________________________________________________________________
dropout_3 (Dropout)          (None, 30)                0         
_________________________________________________________________
dense_4 (Dense)              (None, 4)                 124       
=================================================================
Total params: 57,364
Trainable params: 57,364
Non-trainable params: 0
_________________________________________________________________
Iteration:  1
Train on 25213 samples, validate on 4000 samples
Epoch 1/300
 - 2s - loss: 1.7071 - acc: 0.2643 - val_loss: 1.6498 - val_acc: 0.2780
Epoch 2/300
 - 1s - loss: 1.6218 - acc: 0.2777 - val_loss: 1.5910 - val_acc: 0.2780
…
