_________________________________________________________________
Layer (type)                 Output Shape              Param #   
=================================================================
flatten (Flatten)            (None, 100)               0         
_________________________________________________________________
dense (Dense)                (None, 180)               18180     
_________________________________________________________________
dropout (Dropout)            (None, 180)               0         
_________________________________________________________________
dense_1 (Dense)              (None, 180)               32580     
_________________________________________________________________
dropout_1 (Dropout)          (None, 180)               0         
_________________________________________________________________
dense_2 (Dense)              (None, 180)               32580     
_________________________________________________________________
dropout_2 (Dropout)          (None, 180)               0         
_________________________________________________________________
dense_3 (Dense)              (None, 100)               18100     
_________________________________________________________________
dropout_3 (Dropout)          (None, 100)               0         
_________________________________________________________________
dense_4 (Dense)              (None, 30)                3030      
_________________________________________________________________
dropout_4 (Dropout)          (None, 30)                0         
_________________________________________________________________
dense_5 (Dense)              (None, 4)                 124       
=================================================================
Total params: 104,594
Trainable params: 104,594
Non-trainable params: 0
_________________________________________________________________
Iteration:  1
Train on 169543 samples, validate on 4000 samples
Epoch 1/100
 - 20s - loss: 1.2268 - acc: 0.4094 - val_loss: 1.0679 - val_acc: 0.5230
Epoch 2/100
 - 19s - loss: 1.0835 - acc: 0.5177 - val_loss: 1.0772 - val_acc: 0.5325
…
