_________________________________________________________________
Layer (type)                 Output Shape              Param #   
=================================================================
flatten (Flatten)            (None, 169)               0         
_________________________________________________________________
dense (Dense)                (None, 180)               30600     
_________________________________________________________________
dropout (Dropout)            (None, 180)               0         
_________________________________________________________________
dense_1 (Dense)              (None, 180)               32580     
_________________________________________________________________
dropout_1 (Dropout)          (None, 180)               0         
_________________________________________________________________
dense_2 (Dense)              (None, 180)               32580     
_________________________________________________________________
dropout_2 (Dropout)          (None, 180)               0         
_________________________________________________________________
dense_3 (Dense)              (None, 100)               18100     
_________________________________________________________________
dropout_3 (Dropout)          (None, 100)               0         
_________________________________________________________________
dense_4 (Dense)              (None, 30)                3030      
_________________________________________________________________
dropout_4 (Dropout)          (None, 30)                0         
_________________________________________________________________
dense_5 (Dense)              (None, 4)                 124       
=================================================================
Total params: 117,014
Trainable params: 117,014
Non-trainable params: 0
_________________________________________________________________
Iteration:  1
Train on 25213 samples, validate on 4000 samples
Epoch 1/300
 - 3s - loss: 1.3944 - acc: 0.2638 - val_loss: 1.3834 - val_acc: 0.2803
Epoch 2/300
 - 2s - loss: 1.3852 - acc: 0.2765 - val_loss: 1.3847 - val_acc: 0.2803
…
