_________________________________________________________________
Layer (type)                 Output Shape              Param #   
=================================================================
flatten (Flatten)            (None, 100)               0         
_________________________________________________________________
dense (Dense)                (None, 180)               18180     
_________________________________________________________________
dropout (Dropout)            (None, 180)               0         
_________________________________________________________________
dense_1 (Dense)              (None, 180)               32580     
_________________________________________________________________
dropout_1 (Dropout)          (None, 180)               0         
_________________________________________________________________
dense_2 (Dense)              (None, 180)               32580     
_________________________________________________________________
dropout_2 (Dropout)          (None, 180)               0         
_________________________________________________________________
dense_3 (Dense)              (None, 100)               18100     
_________________________________________________________________
dropout_3 (Dropout)          (None, 100)               0         
_________________________________________________________________
dense_4 (Dense)              (None, 30)                3030      
_________________________________________________________________
dropout_4 (Dropout)          (None, 30)                0         
_________________________________________________________________
dense_5 (Dense)              (None, 4)                 124       
=================================================================
Total params: 104,594
Trainable params: 104,594
Non-trainable params: 0
_________________________________________________________________
Iteration:  1
Train on 95499 samples, validate on 4000 samples
Epoch 1/80
 - 18s - loss: 1.3890 - acc: 0.2590 - val_loss: 1.3862 - val_acc: 0.2605
Epoch 2/80
 - 11s - loss: 1.3850 - acc: 0.2658 - val_loss: 1.3856 - val_acc: 0.2603
…
